{"class_name": "Functional", "config": {"name": "model_3", "layers": [{"class_name": "InputLayer", "config": {"batch_input_shape": [null, 250, 250, 3], "dtype": "float32", "sparse": false, "ragged": false, "name": "input_7"}, "name": "input_7", "inbound_nodes": []}, {"class_name": "Rescaling", "config": {"name": "rescaling_3", "trainable": true, "dtype": "float32", "scale": 0.00784313725490196, "offset": -1}, "name": "rescaling_3", "inbound_nodes": [[["input_7", 0, 0, {}]]]}, {"class_name": "Functional", "config": {"name": "xception", "layers": [{"class_name": "InputLayer", "config": {"batch_input_shape": [null, 250, 250, 3], "dtype": "float32", "sparse": false, "ragged": false, "name": "input_8"}, "name": "input_8", "inbound_nodes": []}, {"class_name": "Conv2D", "config": {"name": "block1_conv1", "trainable": false, "dtype": "float32", "filters": 32, "kernel_size": [3, 3], "strides": [2, 2], "padding": "valid", "data_format": "channels_last", "dilation_rate": [1, 1], "groups": 1, "activation": "linear", "use_bias": false, "kernel_initializer": {"class_name": "GlorotUniform", "config": {"seed": null}}, "bias_initializer": {"class_name": "Zeros", "config": {}}, "kernel_regularizer": null, "bias_regularizer": null, "activity_regularizer": null, "kernel_constraint": null, "bias_constraint": null}, "name": "block1_conv1", "inbound_nodes": [[["input_8", 0, 0, {}]]]}, {"class_name": "BatchNormalization", "config": {"name": "block1_conv1_bn", "trainable": false, "dtype": "float32", "axis": [3], "momentum": 0.99, "epsilon": 0.001, "center": true, "scale": true, "beta_initializer": {"class_name": "Zeros", "config": {}}, "gamma_initializer": {"class_name": "Ones", "config": {}}, "moving_mean_initializer": {"class_name": "Zeros", "config": {}}, "moving_variance_initializer": {"class_name": "Ones", "config": {}}, "beta_regularizer": null, "gamma_regularizer": null, "beta_constraint": null, "gamma_constraint": null}, "name": "block1_conv1_bn", "inbound_nodes": [[["block1_conv1", 0, 0, {}]]]}, {"class_name": "Activation", "config": {"name": "block1_conv1_act", "trainable": false, "dtype": "float32", "activation": "relu"}, "name": "block1_conv1_act", "inbound_nodes": [[["block1_conv1_bn", 0, 0, {}]]]}, {"class_name": "Conv2D", "config": {"name": "block1_conv2", "trainable": false, "dtype": "float32", "filters": 64, "kernel_size": [3, 3], "strides": [1, 1], "padding": "valid", "data_format": "channels_last", "dilation_rate": [1, 1], "groups": 1, "activation": "linear", "use_bias": false, "kernel_initializer": {"class_name": "GlorotUniform", "config": {"seed": null}}, "bias_initializer": {"class_name": "Zeros", "config": {}}, "kernel_regularizer": null, "bias_regularizer": null, "activity_regularizer": null, "kernel_constraint": null, "bias_constraint": null}, "name": "block1_conv2", "inbound_nodes": [[["block1_conv1_act", 0, 0, {}]]]}, {"class_name": "BatchNormalization", "config": {"name": "block1_conv2_bn", "trainable": false, "dtype": "float32", "axis": [3], "momentum": 0.99, "epsilon": 0.001, "center": true, "scale": true, "beta_initializer": {"class_name": "Zeros", "config": {}}, "gamma_initializer": {"class_name": "Ones", "config": {}}, "moving_mean_initializer": {"class_name": "Zeros", "config": {}}, "moving_variance_initializer": {"class_name": "Ones", "config": {}}, "beta_regularizer": null, "gamma_regularizer": null, "beta_constraint": null, "gamma_constraint": null}, "name": "block1_conv2_bn", "inbound_nodes": [[["block1_conv2", 0, 0, {}]]]}, {"class_name": "Activation", "config": {"name": "block1_conv2_act", "trainable": false, "dtype": "float32", "activation": "relu"}, "name": "block1_conv2_act", "inbound_nodes": [[["block1_conv2_bn", 0, 0, {}]]]}, {"class_name": "SeparableConv2D", "config": {"name": "block2_sepconv1", "trainable": false, "dtype": "float32", "filters": 128, "kernel_size": [3, 3], "strides": [1, 1], "padding": "same", "data_format": "channels_last", "dilation_rate": [1, 1], "groups": 1, "activation": "linear", "use_bias": false, "kernel_initializer": {"class_name": "GlorotUniform", "config": {"seed": null}}, "bias_initializer": {"class_name": "Zeros", "config": {}, "shared_object_id": 23}, "kernel_regularizer": null, "bias_regularizer": null, "activity_regularizer": null, "kernel_constraint": null, "bias_constraint": null, "depth_multiplier": 1, "depthwise_initializer": {"class_name": "GlorotUniform", "config": {"seed": null}}, "pointwise_initializer": {"class_name": "GlorotUniform", "config": {"seed": null}}, "depthwise_regularizer": null, "pointwise_regularizer": null, "depthwise_constraint": null, "pointwise_constraint": null}, "name": "block2_sepconv1", "inbound_nodes": [[["block1_conv2_act", 0, 0, {}]]]}, {"class_name": "BatchNormalization", "config": {"name": "block2_sepconv1_bn", "trainable": false, "dtype": "float32", "axis": [3], "momentum": 0.99, "epsilon": 0.001, "center": true, "scale": true, "beta_initializer": {"class_name": "Zeros", "config": {}}, "gamma_initializer": {"class_name": "Ones", "config": {}}, "moving_mean_initializer": {"class_name": "Zeros", "config": {}}, "moving_variance_initializer": {"class_name": "Ones", "config": {}}, "beta_regularizer": null, "gamma_regularizer": null, "beta_constraint": null, "gamma_constraint": null}, "name": "block2_sepconv1_bn", "inbound_nodes": [[["block2_sepconv1", 0, 0, {}]]]}, {"class_name": "Activation", "config": {"name": "block2_sepconv2_act", "trainable": false, "dtype": "float32", "activation": "relu"}, "name": "block2_sepconv2_act", "inbound_nodes": [[["block2_sepconv1_bn", 0, 0, {}]]]}, {"class_name": "SeparableConv2D", "config": {"name": "block2_sepconv2", "trainable": false, "dtype": "float32", "filters": 128, "kernel_size": [3, 3], "strides": [1, 1], "padding": "same", "data_format": "channels_last", "dilation_rate": [1, 1], "groups": 1, "activation": "linear", "use_bias": false, "kernel_initializer": {"class_name": "GlorotUniform", "config": {"seed": null}}, "bias_initializer": {"class_name": "Zeros", "config": {}, "shared_object_id": 34}, "kernel_regularizer": null, "bias_regularizer": null, "activity_regularizer": null, "kernel_constraint": null, "bias_constraint": null, "depth_multiplier": 1, "depthwise_initializer": {"class_name": "GlorotUniform", "config": {"seed": null}}, "pointwise_initializer": {"class_name": "GlorotUniform", "config": {"seed": null}}, "depthwise_regularizer": null, "pointwise_regularizer": null, "depthwise_constraint": null, "pointwise_constraint": null}, "name": "block2_sepconv2", "inbound_nodes": [[["block2_sepconv2_act", 0, 0, {}]]]}, {"class_name": "BatchNormalization", "config": {"name": "block2_sepconv2_bn", "trainable": false, "dtype": "float32", "axis": [3], "momentum": 0.99, "epsilon": 0.001, "center": true, "scale": true, "beta_initializer": {"class_name": "Zeros", "config": {}}, "gamma_initializer": {"class_name": "Ones", "config": {}}, "moving_mean_initializer": {"class_name": "Zeros", "config": {}}, "moving_variance_initializer": {"class_name": "Ones", "config": {}}, "beta_regularizer": null, "gamma_regularizer": null, "beta_constraint": null, "gamma_constraint": null}, "name": "block2_sepconv2_bn", "inbound_nodes": [[["block2_sepconv2", 0, 0, {}]]]}, {"class_name": "Conv2D", "config": {"name": "conv2d_12", "trainable": false, "dtype": "float32", "filters": 128, "kernel_size": [1, 1], "strides": [2, 2], "padding": "same", "data_format": "channels_last", "dilation_rate": [1, 1], "groups": 1, "activation": "linear", "use_bias": false, "kernel_initializer": {"class_name": "GlorotUniform", "config": {"seed": null}}, "bias_initializer": {"class_name": "Zeros", "config": {}}, "kernel_regularizer": null, "bias_regularizer": null, "activity_regularizer": null, "kernel_constraint": null, "bias_constraint": null}, "name": "conv2d_12", "inbound_nodes": [[["block1_conv2_act", 0, 0, {}]]]}, {"class_name": "MaxPooling2D", "config": {"name": "block2_pool", "trainable": false, "dtype": "float32", "pool_size": [3, 3], "padding": "same", "strides": [2, 2], "data_format": "channels_last"}, "name": "block2_pool", "inbound_nodes": [[["block2_sepconv2_bn", 0, 0, {}]]]}, {"class_name": "BatchNormalization", "config": {"name": "batch_normalization_12", "trainable": false, "dtype": "float32", "axis": [3], "momentum": 0.99, "epsilon": 0.001, "center": true, "scale": true, "beta_initializer": {"class_name": "Zeros", "config": {}}, "gamma_initializer": {"class_name": "Ones", "config": {}}, "moving_mean_initializer": {"class_name": "Zeros", "config": {}}, "moving_variance_initializer": {"class_name": "Ones", "config": {}}, "beta_regularizer": null, "gamma_regularizer": null, "beta_constraint": null, "gamma_constraint": null}, "name": "batch_normalization_12", "inbound_nodes": [[["conv2d_12", 0, 0, {}]]]}, {"class_name": "Add", "config": {"name": "add_36", "trainable": false, "dtype": "float32"}, "name": "add_36", "inbound_nodes": [[["block2_pool", 0, 0, {}], ["batch_normalization_12", 0, 0, {}]]]}, {"class_name": "Activation", "config": {"name": "block3_sepconv1_act", "trainable": false, "dtype": "float32", "activation": "relu"}, "name": "block3_sepconv1_act", "inbound_nodes": [[["add_36", 0, 0, {}]]]}, {"class_name": "SeparableConv2D", "config": {"name": "block3_sepconv1", "trainable": false, "dtype": "float32", "filters": 256, "kernel_size": [3, 3], "strides": [1, 1], "padding": "same", "data_format": "channels_last", "dilation_rate": [1, 1], "groups": 1, "activation": "linear", "use_bias": false, "kernel_initializer": {"class_name": "GlorotUniform", "config": {"seed": null}}, "bias_initializer": {"class_name": "Zeros", "config": {}, "shared_object_id": 55}, "kernel_regularizer": null, "bias_regularizer": null, "activity_regularizer": null, "kernel_constraint": null, "bias_constraint": null, "depth_multiplier": 1, "depthwise_initializer": {"class_name": "GlorotUniform", "config": {"seed": null}}, "pointwise_initializer": {"class_name": "GlorotUniform", "config": {"seed": null}}, "depthwise_regularizer": null, "pointwise_regularizer": null, "depthwise_constraint": null, "pointwise_constraint": null}, "name": "block3_sepconv1", "inbound_nodes": [[["block3_sepconv1_act", 0, 0, {}]]]}, {"class_name": "BatchNormalization", "config": {"name": "block3_sepconv1_bn", "trainable": false, "dtype": "float32", "axis": [3], "momentum": 0.99, "epsilon": 0.001, "center": true, "scale": true, "beta_initializer": {"class_name": "Zeros", "config": {}}, "gamma_initializer": {"class_name": "Ones", "config": {}}, "moving_mean_initializer": {"class_name": "Zeros", "config": {}}, "moving_variance_initializer": {"class_name": "Ones", "config": {}}, "beta_regularizer": null, "gamma_regularizer": null, "beta_constraint": null, "gamma_constraint": null}, "name": "block3_sepconv1_bn", "inbound_nodes": [[["block3_sepconv1", 0, 0, {}]]]}, {"class_name": "Activation", "config": {"name": "block3_sepconv2_act", "trainable": false, "dtype": "float32", "activation": "relu"}, "name": "block3_sepconv2_act", "inbound_nodes": [[["block3_sepconv1_bn", 0, 0, {}]]]}, {"class_name": "SeparableConv2D", "config": {"name": "block3_sepconv2", "trainable": false, "dtype": "float32", "filters": 256, "kernel_size": [3, 3], "strides": [1, 1], "padding": "same", "data_format": "channels_last", "dilation_rate": [1, 1], "groups": 1, "activation": "linear", "use_bias": false, "kernel_initializer": {"class_name": "GlorotUniform", "config": {"seed": null}}, "bias_initializer": {"class_name": "Zeros", "config": {}, "shared_object_id": 66}, "kernel_regularizer": null, "bias_regularizer": null, "activity_regularizer": null, "kernel_constraint": null, "bias_constraint": null, "depth_multiplier": 1, "depthwise_initializer": {"class_name": "GlorotUniform", "config": {"seed": null}}, "pointwise_initializer": {"class_name": "GlorotUniform", "config": {"seed": null}}, "depthwise_regularizer": null, "pointwise_regularizer": null, "depthwise_constraint": null, "pointwise_constraint": null}, "name": "block3_sepconv2", "inbound_nodes": [[["block3_sepconv2_act", 0, 0, {}]]]}, {"class_name": "BatchNormalization", "config": {"name": "block3_sepconv2_bn", "trainable": false, "dtype": "float32", "axis": [3], "momentum": 0.99, "epsilon": 0.001, "center": true, "scale": true, "beta_initializer": {"class_name": "Zeros", "config": {}}, "gamma_initializer": {"class_name": "Ones", "config": {}}, "moving_mean_initializer": {"class_name": "Zeros", "config": {}}, "moving_variance_initializer": {"class_name": "Ones", "config": {}}, "beta_regularizer": null, "gamma_regularizer": null, "beta_constraint": null, "gamma_constraint": null}, "name": "block3_sepconv2_bn", "inbound_nodes": [[["block3_sepconv2", 0, 0, {}]]]}, {"class_name": "Conv2D", "config": {"name": "conv2d_13", "trainable": false, "dtype": "float32", "filters": 256, "kernel_size": [1, 1], "strides": [2, 2], "padding": "same", "data_format": "channels_last", "dilation_rate": [1, 1], "groups": 1, "activation": "linear", "use_bias": false, "kernel_initializer": {"class_name": "GlorotUniform", "config": {"seed": null}}, "bias_initializer": {"class_name": "Zeros", "config": {}}, "kernel_regularizer": null, "bias_regularizer": null, "activity_regularizer": null, "kernel_constraint": null, "bias_constraint": null}, "name": "conv2d_13", "inbound_nodes": [[["add_36", 0, 0, {}]]]}, {"class_name": "MaxPooling2D", "config": {"name": "block3_pool", "trainable": false, "dtype": "float32", "pool_size": [3, 3], "padding": "same", "strides": [2, 2], "data_format": "channels_last"}, "name": "block3_pool", "inbound_nodes": [[["block3_sepconv2_bn", 0, 0, {}]]]}, {"class_name": "BatchNormalization", "config": {"name": "batch_normalization_13", "trainable": false, "dtype": "float32", "axis": [3], "momentum": 0.99, "epsilon": 0.001, "center": true, "scale": true, "beta_initializer": {"class_name": "Zeros", "config": {}}, "gamma_initializer": {"class_name": "Ones", "config": {}}, "moving_mean_initializer": {"class_name": "Zeros", "config": {}}, "moving_variance_initializer": {"class_name": "Ones", "config": {}}, "beta_regularizer": null, "gamma_regularizer": null, "beta_constraint": null, "gamma_constraint": null}, "name": "batch_normalization_13", "inbound_nodes": [[["conv2d_13", 0, 0, {}]]]}, {"class_name": "Add", "config": {"name": "add_37", "trainable": false, "dtype": "float32"}, "name": "add_37", "inbound_nodes": [[["block3_pool", 0, 0, {}], ["batch_normalization_13", 0, 0, {}]]]}, {"class_name": "Activation", "config": {"name": "block4_sepconv1_act", "trainable": false, "dtype": "float32", "activation": "relu"}, "name": "block4_sepconv1_act", "inbound_nodes": [[["add_37", 0, 0, {}]]]}, {"class_name": "SeparableConv2D", "config": {"name": "block4_sepconv1", "trainable": false, "dtype": "float32", "filters": 728, "kernel_size": [3, 3], "strides": [1, 1], "padding": "same", "data_format": "channels_last", "dilation_rate": [1, 1], "groups": 1, "activation": "linear", "use_bias": false, "kernel_initializer": {"class_name": "GlorotUniform", "config": {"seed": null}}, "bias_initializer": {"class_name": "Zeros", "config": {}, "shared_object_id": 87}, "kernel_regularizer": null, "bias_regularizer": null, "activity_regularizer": null, "kernel_constraint": null, "bias_constraint": null, "depth_multiplier": 1, "depthwise_initializer": {"class_name": "GlorotUniform", "config": {"seed": null}}, "pointwise_initializer": {"class_name": "GlorotUniform", "config": {"seed": null}}, "depthwise_regularizer": null, "pointwise_regularizer": null, "depthwise_constraint": null, "pointwise_constraint": null}, "name": "block4_sepconv1", "inbound_nodes": [[["block4_sepconv1_act", 0, 0, {}]]]}, {"class_name": "BatchNormalization", "config": {"name": "block4_sepconv1_bn", "trainable": false, "dtype": "float32", "axis": [3], "momentum": 0.99, "epsilon": 0.001, "center": true, "scale": true, "beta_initializer": {"class_name": "Zeros", "config": {}}, "gamma_initializer": {"class_name": "Ones", "config": {}}, "moving_mean_initializer": {"class_name": "Zeros", "config": {}}, "moving_variance_initializer": {"class_name": "Ones", "config": {}}, "beta_regularizer": null, "gamma_regularizer": null, "beta_constraint": null, "gamma_constraint": null}, "name": "block4_sepconv1_bn", "inbound_nodes": [[["block4_sepconv1", 0, 0, {}]]]}, {"class_name": "Activation", "config": {"name": "block4_sepconv2_act", "trainable": false, "dtype": "float32", "activation": "relu"}, "name": "block4_sepconv2_act", "inbound_nodes": [[["block4_sepconv1_bn", 0, 0, {}]]]}, {"class_name": "SeparableConv2D", "config": {"name": "block4_sepconv2", "trainable": false, "dtype": "float32", "filters": 728, "kernel_size": [3, 3], "strides": [1, 1], "padding": "same", "data_format": "channels_last", "dilation_rate": [1, 1], "groups": 1, "activation": "linear", "use_bias": false, "kernel_initializer": {"class_name": "GlorotUniform", "config": {"seed": null}}, "bias_initializer": {"class_name": "Zeros", "config": {}, "shared_object_id": 98}, "kernel_regularizer": null, "bias_regularizer": null, "activity_regularizer": null, "kernel_constraint": null, "bias_constraint": null, "depth_multiplier": 1, "depthwise_initializer": {"class_name": "GlorotUniform", "config": {"seed": null}}, "pointwise_initializer": {"class_name": "GlorotUniform", "config": {"seed": null}}, "depthwise_regularizer": null, "pointwise_regularizer": null, "depthwise_constraint": null, "pointwise_constraint": null}, "name": "block4_sepconv2", "inbound_nodes": [[["block4_sepconv2_act", 0, 0, {}]]]}, {"class_name": "BatchNormalization", "config": {"name": "block4_sepconv2_bn", "trainable": false, "dtype": "float32", "axis": [3], "momentum": 0.99, "epsilon": 0.001, "center": true, "scale": true, "beta_initializer": {"class_name": "Zeros", "config": {}}, "gamma_initializer": {"class_name": "Ones", "config": {}}, "moving_mean_initializer": {"class_name": "Zeros", "config": {}}, "moving_variance_initializer": {"class_name": "Ones", "config": {}}, "beta_regularizer": null, "gamma_regularizer": null, "beta_constraint": null, "gamma_constraint": null}, "name": "block4_sepconv2_bn", "inbound_nodes": [[["block4_sepconv2", 0, 0, {}]]]}, {"class_name": "Conv2D", "config": {"name": "conv2d_14", "trainable": false, "dtype": "float32", "filters": 728, "kernel_size": [1, 1], "strides": [2, 2], "padding": "same", "data_format": "channels_last", "dilation_rate": [1, 1], "groups": 1, "activation": "linear", "use_bias": false, "kernel_initializer": {"class_name": "GlorotUniform", "config": {"seed": null}}, "bias_initializer": {"class_name": "Zeros", "config": {}}, "kernel_regularizer": null, "bias_regularizer": null, "activity_regularizer": null, "kernel_constraint": null, "bias_constraint": null}, "name": "conv2d_14", "inbound_nodes": [[["add_37", 0, 0, {}]]]}, {"class_name": "MaxPooling2D", "config": {"name": "block4_pool", "trainable": false, "dtype": "float32", "pool_size": [3, 3], "padding": "same", "strides": [2, 2], "data_format": "channels_last"}, "name": "block4_pool", "inbound_nodes": [[["block4_sepconv2_bn", 0, 0, {}]]]}, {"class_name": "BatchNormalization", "config": {"name": "batch_normalization_14", "trainable": false, "dtype": "float32", "axis": [3], "momentum": 0.99, "epsilon": 0.001, "center": true, "scale": true, "beta_initializer": {"class_name": "Zeros", "config": {}}, "gamma_initializer": {"class_name": "Ones", "config": {}}, "moving_mean_initializer": {"class_name": "Zeros", "config": {}}, "moving_variance_initializer": {"class_name": "Ones", "config": {}}, "beta_regularizer": null, "gamma_regularizer": null, "beta_constraint": null, "gamma_constraint": null}, "name": "batch_normalization_14", "inbound_nodes": [[["conv2d_14", 0, 0, {}]]]}, {"class_name": "Add", "config": {"name": "add_38", "trainable": false, "dtype": "float32"}, "name": "add_38", "inbound_nodes": [[["block4_pool", 0, 0, {}], ["batch_normalization_14", 0, 0, {}]]]}, {"class_name": "Activation", "config": {"name": "block5_sepconv1_act", "trainable": false, "dtype": "float32", "activation": "relu"}, "name": "block5_sepconv1_act", "inbound_nodes": [[["add_38", 0, 0, {}]]]}, {"class_name": "SeparableConv2D", "config": {"name": "block5_sepconv1", "trainable": false, "dtype": "float32", "filters": 728, "kernel_size": [3, 3], "strides": [1, 1], "padding": "same", "data_format": "channels_last", "dilation_rate": [1, 1], "groups": 1, "activation": "linear", "use_bias": false, "kernel_initializer": {"class_name": "GlorotUniform", "config": {"seed": null}}, "bias_initializer": {"class_name": "Zeros", "config": {}, "shared_object_id": 119}, "kernel_regularizer": null, "bias_regularizer": null, "activity_regularizer": null, "kernel_constraint": null, "bias_constraint": null, "depth_multiplier": 1, "depthwise_initializer": {"class_name": "GlorotUniform", "config": {"seed": null}}, "pointwise_initializer": {"class_name": "GlorotUniform", "config": {"seed": null}}, "depthwise_regularizer": null, "pointwise_regularizer": null, "depthwise_constraint": null, "pointwise_constraint": null}, "name": "block5_sepconv1", "inbound_nodes": [[["block5_sepconv1_act", 0, 0, {}]]]}, {"class_name": "BatchNormalization", "config": {"name": "block5_sepconv1_bn", "trainable": false, "dtype": "float32", "axis": [3], "momentum": 0.99, "epsilon": 0.001, "center": true, "scale": true, "beta_initializer": {"class_name": "Zeros", "config": {}}, "gamma_initializer": {"class_name": "Ones", "config": {}}, "moving_mean_initializer": {"class_name": "Zeros", "config": {}}, "moving_variance_initializer": {"class_name": "Ones", "config": {}}, "beta_regularizer": null, "gamma_regularizer": null, "beta_constraint": null, "gamma_constraint": null}, "name": "block5_sepconv1_bn", "inbound_nodes": [[["block5_sepconv1", 0, 0, {}]]]}, {"class_name": "Activation", "config": {"name": "block5_sepconv2_act", "trainable": false, "dtype": "float32", "activation": "relu"}, "name": "block5_sepconv2_act", "inbound_nodes": [[["block5_sepconv1_bn", 0, 0, {}]]]}, {"class_name": "SeparableConv2D", "config": {"name": "block5_sepconv2", "trainable": false, "dtype": "float32", "filters": 728, "kernel_size": [3, 3], "strides": [1, 1], "padding": "same", "data_format": "channels_last", "dilation_rate": [1, 1], "groups": 1, "activation": "linear", "use_bias": false, "kernel_initializer": {"class_name": "GlorotUniform", "config": {"seed": null}}, "bias_initializer": {"class_name": "Zeros", "config": {}, "shared_object_id": 130}, "kernel_regularizer": null, "bias_regularizer": null, "activity_regularizer": null, "kernel_constraint": null, "bias_constraint": null, "depth_multiplier": 1, "depthwise_initializer": {"class_name": "GlorotUniform", "config": {"seed": null}}, "pointwise_initializer": {"class_name": "GlorotUniform", "config": {"seed": null}}, "depthwise_regularizer": null, "pointwise_regularizer": null, "depthwise_constraint": null, "pointwise_constraint": null}, "name": "block5_sepconv2", "inbound_nodes": [[["block5_sepconv2_act", 0, 0, {}]]]}, {"class_name": "BatchNormalization", "config": {"name": "block5_sepconv2_bn", "trainable": false, "dtype": "float32", "axis": [3], "momentum": 0.99, "epsilon": 0.001, "center": true, "scale": true, "beta_initializer": {"class_name": "Zeros", "config": {}}, "gamma_initializer": {"class_name": "Ones", "config": {}}, "moving_mean_initializer": {"class_name": "Zeros", "config": {}}, "moving_variance_initializer": {"class_name": "Ones", "config": {}}, "beta_regularizer": null, "gamma_regularizer": null, "beta_constraint": null, "gamma_constraint": null}, "name": "block5_sepconv2_bn", "inbound_nodes": [[["block5_sepconv2", 0, 0, {}]]]}, {"class_name": "Activation", "config": {"name": "block5_sepconv3_act", "trainable": false, "dtype": "float32", "activation": "relu"}, "name": "block5_sepconv3_act", "inbound_nodes": [[["block5_sepconv2_bn", 0, 0, {}]]]}, {"class_name": "SeparableConv2D", "config": {"name": "block5_sepconv3", "trainable": false, "dtype": "float32", "filters": 728, "kernel_size": [3, 3], "strides": [1, 1], "padding": "same", "data_format": "channels_last", "dilation_rate": [1, 1], "groups": 1, "activation": "linear", "use_bias": false, "kernel_initializer": {"class_name": "GlorotUniform", "config": {"seed": null}}, "bias_initializer": {"class_name": "Zeros", "config": {}, "shared_object_id": 141}, "kernel_regularizer": null, "bias_regularizer": null, "activity_regularizer": null, "kernel_constraint": null, "bias_constraint": null, "depth_multiplier": 1, "depthwise_initializer": {"class_name": "GlorotUniform", "config": {"seed": null}}, "pointwise_initializer": {"class_name": "GlorotUniform", "config": {"seed": null}}, "depthwise_regularizer": null, "pointwise_regularizer": null, "depthwise_constraint": null, "pointwise_constraint": null}, "name": "block5_sepconv3", "inbound_nodes": [[["block5_sepconv3_act", 0, 0, {}]]]}, {"class_name": "BatchNormalization", "config": {"name": "block5_sepconv3_bn", "trainable": false, "dtype": "float32", "axis": [3], "momentum": 0.99, "epsilon": 0.001, "center": true, "scale": true, "beta_initializer": {"class_name": "Zeros", "config": {}}, "gamma_initializer": {"class_name": "Ones", "config": {}}, "moving_mean_initializer": {"class_name": "Zeros", "config": {}}, "moving_variance_initializer": {"class_name": "Ones", "config": {}}, "beta_regularizer": null, "gamma_regularizer": null, "beta_constraint": null, "gamma_constraint": null}, "name": "block5_sepconv3_bn", "inbound_nodes": [[["block5_sepconv3", 0, 0, {}]]]}, {"class_name": "Add", "config": {"name": "add_39", "trainable": false, "dtype": "float32"}, "name": "add_39", "inbound_nodes": [[["block5_sepconv3_bn", 0, 0, {}], ["add_38", 0, 0, {}]]]}, {"class_name": "Activation", "config": {"name": "block6_sepconv1_act", "trainable": false, "dtype": "float32", "activation": "relu"}, "name": "block6_sepconv1_act", "inbound_nodes": [[["add_39", 0, 0, {}]]]}, {"class_name": "SeparableConv2D", "config": {"name": "block6_sepconv1", "trainable": false, "dtype": "float32", "filters": 728, "kernel_size": [3, 3], "strides": [1, 1], "padding": "same", "data_format": "channels_last", "dilation_rate": [1, 1], "groups": 1, "activation": "linear", "use_bias": false, "kernel_initializer": {"class_name": "GlorotUniform", "config": {"seed": null}}, "bias_initializer": {"class_name": "Zeros", "config": {}, "shared_object_id": 153}, "kernel_regularizer": null, "bias_regularizer": null, "activity_regularizer": null, "kernel_constraint": null, "bias_constraint": null, "depth_multiplier": 1, "depthwise_initializer": {"class_name": "GlorotUniform", "config": {"seed": null}}, "pointwise_initializer": {"class_name": "GlorotUniform", "config": {"seed": null}}, "depthwise_regularizer": null, "pointwise_regularizer": null, "depthwise_constraint": null, "pointwise_constraint": null}, "name": "block6_sepconv1", "inbound_nodes": [[["block6_sepconv1_act", 0, 0, {}]]]}, {"class_name": "BatchNormalization", "config": {"name": "block6_sepconv1_bn", "trainable": false, "dtype": "float32", "axis": [3], "momentum": 0.99, "epsilon": 0.001, "center": true, "scale": true, "beta_initializer": {"class_name": "Zeros", "config": {}}, "gamma_initializer": {"class_name": "Ones", "config": {}}, "moving_mean_initializer": {"class_name": "Zeros", "config": {}}, "moving_variance_initializer": {"class_name": "Ones", "config": {}}, "beta_regularizer": null, "gamma_regularizer": null, "beta_constraint": null, "gamma_constraint": null}, "name": "block6_sepconv1_bn", "inbound_nodes": [[["block6_sepconv1", 0, 0, {}]]]}, {"class_name": "Activation", "config": {"name": "block6_sepconv2_act", "trainable": false, "dtype": "float32", "activation": "relu"}, "name": "block6_sepconv2_act", "inbound_nodes": [[["block6_sepconv1_bn", 0, 0, {}]]]}, {"class_name": "SeparableConv2D", "config": {"name": "block6_sepconv2", "trainable": false, "dtype": "float32", "filters": 728, "kernel_size": [3, 3], "strides": [1, 1], "padding": "same", "data_format": "channels_last", "dilation_rate": [1, 1], "groups": 1, "activation": "linear", "use_bias": false, "kernel_initializer": {"class_name": "GlorotUniform", "config": {"seed": null}}, "bias_initializer": {"class_name": "Zeros", "config": {}, "shared_object_id": 164}, "kernel_regularizer": null, "bias_regularizer": null, "activity_regularizer": null, "kernel_constraint": null, "bias_constraint": null, "depth_multiplier": 1, "depthwise_initializer": {"class_name": "GlorotUniform", "config": {"seed": null}}, "pointwise_initializer": {"class_name": "GlorotUniform", "config": {"seed": null}}, "depthwise_regularizer": null, "pointwise_regularizer": null, "depthwise_constraint": null, "pointwise_constraint": null}, "name": "block6_sepconv2", "inbound_nodes": [[["block6_sepconv2_act", 0, 0, {}]]]}, {"class_name": "BatchNormalization", "config": {"name": "block6_sepconv2_bn", "trainable": false, "dtype": "float32", "axis": [3], "momentum": 0.99, "epsilon": 0.001, "center": true, "scale": true, "beta_initializer": {"class_name": "Zeros", "config": {}}, "gamma_initializer": {"class_name": "Ones", "config": {}}, "moving_mean_initializer": {"class_name": "Zeros", "config": {}}, "moving_variance_initializer": {"class_name": "Ones", "config": {}}, "beta_regularizer": null, "gamma_regularizer": null, "beta_constraint": null, "gamma_constraint": null}, "name": "block6_sepconv2_bn", "inbound_nodes": [[["block6_sepconv2", 0, 0, {}]]]}, {"class_name": "Activation", "config": {"name": "block6_sepconv3_act", "trainable": false, "dtype": "float32", "activation": "relu"}, "name": "block6_sepconv3_act", "inbound_nodes": [[["block6_sepconv2_bn", 0, 0, {}]]]}, {"class_name": "SeparableConv2D", "config": {"name": "block6_sepconv3", "trainable": false, "dtype": "float32", "filters": 728, "kernel_size": [3, 3], "strides": [1, 1], "padding": "same", "data_format": "channels_last", "dilation_rate": [1, 1], "groups": 1, "activation": "linear", "use_bias": false, "kernel_initializer": {"class_name": "GlorotUniform", "config": {"seed": null}}, "bias_initializer": {"class_name": "Zeros", "config": {}, "shared_object_id": 175}, "kernel_regularizer": null, "bias_regularizer": null, "activity_regularizer": null, "kernel_constraint": null, "bias_constraint": null, "depth_multiplier": 1, "depthwise_initializer": {"class_name": "GlorotUniform", "config": {"seed": null}}, "pointwise_initializer": {"class_name": "GlorotUniform", "config": {"seed": null}}, "depthwise_regularizer": null, "pointwise_regularizer": null, "depthwise_constraint": null, "pointwise_constraint": null}, "name": "block6_sepconv3", "inbound_nodes": [[["block6_sepconv3_act", 0, 0, {}]]]}, {"class_name": "BatchNormalization", "config": {"name": "block6_sepconv3_bn", "trainable": false, "dtype": "float32", "axis": [3], "momentum": 0.99, "epsilon": 0.001, "center": true, "scale": true, "beta_initializer": {"class_name": "Zeros", "config": {}}, "gamma_initializer": {"class_name": "Ones", "config": {}}, "moving_mean_initializer": {"class_name": "Zeros", "config": {}}, "moving_variance_initializer": {"class_name": "Ones", "config": {}}, "beta_regularizer": null, "gamma_regularizer": null, "beta_constraint": null, "gamma_constraint": null}, "name": "block6_sepconv3_bn", "inbound_nodes": [[["block6_sepconv3", 0, 0, {}]]]}, {"class_name": "Add", "config": {"name": "add_40", "trainable": false, "dtype": "float32"}, "name": "add_40", "inbound_nodes": [[["block6_sepconv3_bn", 0, 0, {}], ["add_39", 0, 0, {}]]]}, {"class_name": "Activation", "config": {"name": "block7_sepconv1_act", "trainable": false, "dtype": "float32", "activation": "relu"}, "name": "block7_sepconv1_act", "inbound_nodes": [[["add_40", 0, 0, {}]]]}, {"class_name": "SeparableConv2D", "config": {"name": "block7_sepconv1", "trainable": false, "dtype": "float32", "filters": 728, "kernel_size": [3, 3], "strides": [1, 1], "padding": "same", "data_format": "channels_last", "dilation_rate": [1, 1], "groups": 1, "activation": "linear", "use_bias": false, "kernel_initializer": {"class_name": "GlorotUniform", "config": {"seed": null}}, "bias_initializer": {"class_name": "Zeros", "config": {}, "shared_object_id": 187}, "kernel_regularizer": null, "bias_regularizer": null, "activity_regularizer": null, "kernel_constraint": null, "bias_constraint": null, "depth_multiplier": 1, "depthwise_initializer": {"class_name": "GlorotUniform", "config": {"seed": null}}, "pointwise_initializer": {"class_name": "GlorotUniform", "config": {"seed": null}}, "depthwise_regularizer": null, "pointwise_regularizer": null, "depthwise_constraint": null, "pointwise_constraint": null}, "name": "block7_sepconv1", "inbound_nodes": [[["block7_sepconv1_act", 0, 0, {}]]]}, {"class_name": "BatchNormalization", "config": {"name": "block7_sepconv1_bn", "trainable": false, "dtype": "float32", "axis": [3], "momentum": 0.99, "epsilon": 0.001, "center": true, "scale": true, "beta_initializer": {"class_name": "Zeros", "config": {}}, "gamma_initializer": {"class_name": "Ones", "config": {}}, "moving_mean_initializer": {"class_name": "Zeros", "config": {}}, "moving_variance_initializer": {"class_name": "Ones", "config": {}}, "beta_regularizer": null, "gamma_regularizer": null, "beta_constraint": null, "gamma_constraint": null}, "name": "block7_sepconv1_bn", "inbound_nodes": [[["block7_sepconv1", 0, 0, {}]]]}, {"class_name": "Activation", "config": {"name": "block7_sepconv2_act", "trainable": false, "dtype": "float32", "activation": "relu"}, "name": "block7_sepconv2_act", "inbound_nodes": [[["block7_sepconv1_bn", 0, 0, {}]]]}, {"class_name": "SeparableConv2D", "config": {"name": "block7_sepconv2", "trainable": false, "dtype": "float32", "filters": 728, "kernel_size": [3, 3], "strides": [1, 1], "padding": "same", "data_format": "channels_last", "dilation_rate": [1, 1], "groups": 1, "activation": "linear", "use_bias": false, "kernel_initializer": {"class_name": "GlorotUniform", "config": {"seed": null}}, "bias_initializer": {"class_name": "Zeros", "config": {}, "shared_object_id": 198}, "kernel_regularizer": null, "bias_regularizer": null, "activity_regularizer": null, "kernel_constraint": null, "bias_constraint": null, "depth_multiplier": 1, "depthwise_initializer": {"class_name": "GlorotUniform", "config": {"seed": null}}, "pointwise_initializer": {"class_name": "GlorotUniform", "config": {"seed": null}}, "depthwise_regularizer": null, "pointwise_regularizer": null, "depthwise_constraint": null, "pointwise_constraint": null}, "name": "block7_sepconv2", "inbound_nodes": [[["block7_sepconv2_act", 0, 0, {}]]]}, {"class_name": "BatchNormalization", "config": {"name": "block7_sepconv2_bn", "trainable": false, "dtype": "float32", "axis": [3], "momentum": 0.99, "epsilon": 0.001, "center": true, "scale": true, "beta_initializer": {"class_name": "Zeros", "config": {}}, "gamma_initializer": {"class_name": "Ones", "config": {}}, "moving_mean_initializer": {"class_name": "Zeros", "config": {}}, "moving_variance_initializer": {"class_name": "Ones", "config": {}}, "beta_regularizer": null, "gamma_regularizer": null, "beta_constraint": null, "gamma_constraint": null}, "name": "block7_sepconv2_bn", "inbound_nodes": [[["block7_sepconv2", 0, 0, {}]]]}, {"class_name": "Activation", "config": {"name": "block7_sepconv3_act", "trainable": false, "dtype": "float32", "activation": "relu"}, "name": "block7_sepconv3_act", "inbound_nodes": [[["block7_sepconv2_bn", 0, 0, {}]]]}, {"class_name": "SeparableConv2D", "config": {"name": "block7_sepconv3", "trainable": false, "dtype": "float32", "filters": 728, "kernel_size": [3, 3], "strides": [1, 1], "padding": "same", "data_format": "channels_last", "dilation_rate": [1, 1], "groups": 1, "activation": "linear", "use_bias": false, "kernel_initializer": {"class_name": "GlorotUniform", "config": {"seed": null}}, "bias_initializer": {"class_name": "Zeros", "config": {}, "shared_object_id": 209}, "kernel_regularizer": null, "bias_regularizer": null, "activity_regularizer": null, "kernel_constraint": null, "bias_constraint": null, "depth_multiplier": 1, "depthwise_initializer": {"class_name": "GlorotUniform", "config": {"seed": null}}, "pointwise_initializer": {"class_name": "GlorotUniform", "config": {"seed": null}}, "depthwise_regularizer": null, "pointwise_regularizer": null, "depthwise_constraint": null, "pointwise_constraint": null}, "name": "block7_sepconv3", "inbound_nodes": [[["block7_sepconv3_act", 0, 0, {}]]]}, {"class_name": "BatchNormalization", "config": {"name": "block7_sepconv3_bn", "trainable": false, "dtype": "float32", "axis": [3], "momentum": 0.99, "epsilon": 0.001, "center": true, "scale": true, "beta_initializer": {"class_name": "Zeros", "config": {}}, "gamma_initializer": {"class_name": "Ones", "config": {}}, "moving_mean_initializer": {"class_name": "Zeros", "config": {}}, "moving_variance_initializer": {"class_name": "Ones", "config": {}}, "beta_regularizer": null, "gamma_regularizer": null, "beta_constraint": null, "gamma_constraint": null}, "name": "block7_sepconv3_bn", "inbound_nodes": [[["block7_sepconv3", 0, 0, {}]]]}, {"class_name": "Add", "config": {"name": "add_41", "trainable": false, "dtype": "float32"}, "name": "add_41", "inbound_nodes": [[["block7_sepconv3_bn", 0, 0, {}], ["add_40", 0, 0, {}]]]}, {"class_name": "Activation", "config": {"name": "block8_sepconv1_act", "trainable": false, "dtype": "float32", "activation": "relu"}, "name": "block8_sepconv1_act", "inbound_nodes": [[["add_41", 0, 0, {}]]]}, {"class_name": "SeparableConv2D", "config": {"name": "block8_sepconv1", "trainable": false, "dtype": "float32", "filters": 728, "kernel_size": [3, 3], "strides": [1, 1], "padding": "same", "data_format": "channels_last", "dilation_rate": [1, 1], "groups": 1, "activation": "linear", "use_bias": false, "kernel_initializer": {"class_name": "GlorotUniform", "config": {"seed": null}}, "bias_initializer": {"class_name": "Zeros", "config": {}, "shared_object_id": 221}, "kernel_regularizer": null, "bias_regularizer": null, "activity_regularizer": null, "kernel_constraint": null, "bias_constraint": null, "depth_multiplier": 1, "depthwise_initializer": {"class_name": "GlorotUniform", "config": {"seed": null}}, "pointwise_initializer": {"class_name": "GlorotUniform", "config": {"seed": null}}, "depthwise_regularizer": null, "pointwise_regularizer": null, "depthwise_constraint": null, "pointwise_constraint": null}, "name": "block8_sepconv1", "inbound_nodes": [[["block8_sepconv1_act", 0, 0, {}]]]}, {"class_name": "BatchNormalization", "config": {"name": "block8_sepconv1_bn", "trainable": false, "dtype": "float32", "axis": [3], "momentum": 0.99, "epsilon": 0.001, "center": true, "scale": true, "beta_initializer": {"class_name": "Zeros", "config": {}}, "gamma_initializer": {"class_name": "Ones", "config": {}}, "moving_mean_initializer": {"class_name": "Zeros", "config": {}}, "moving_variance_initializer": {"class_name": "Ones", "config": {}}, "beta_regularizer": null, "gamma_regularizer": null, "beta_constraint": null, "gamma_constraint": null}, "name": "block8_sepconv1_bn", "inbound_nodes": [[["block8_sepconv1", 0, 0, {}]]]}, {"class_name": "Activation", "config": {"name": "block8_sepconv2_act", "trainable": false, "dtype": "float32", "activation": "relu"}, "name": "block8_sepconv2_act", "inbound_nodes": [[["block8_sepconv1_bn", 0, 0, {}]]]}, {"class_name": "SeparableConv2D", "config": {"name": "block8_sepconv2", "trainable": false, "dtype": "float32", "filters": 728, "kernel_size": [3, 3], "strides": [1, 1], "padding": "same", "data_format": "channels_last", "dilation_rate": [1, 1], "groups": 1, "activation": "linear", "use_bias": false, "kernel_initializer": {"class_name": "GlorotUniform", "config": {"seed": null}}, "bias_initializer": {"class_name": "Zeros", "config": {}, "shared_object_id": 232}, "kernel_regularizer": null, "bias_regularizer": null, "activity_regularizer": null, "kernel_constraint": null, "bias_constraint": null, "depth_multiplier": 1, "depthwise_initializer": {"class_name": "GlorotUniform", "config": {"seed": null}}, "pointwise_initializer": {"class_name": "GlorotUniform", "config": {"seed": null}}, "depthwise_regularizer": null, "pointwise_regularizer": null, "depthwise_constraint": null, "pointwise_constraint": null}, "name": "block8_sepconv2", "inbound_nodes": [[["block8_sepconv2_act", 0, 0, {}]]]}, {"class_name": "BatchNormalization", "config": {"name": "block8_sepconv2_bn", "trainable": false, "dtype": "float32", "axis": [3], "momentum": 0.99, "epsilon": 0.001, "center": true, "scale": true, "beta_initializer": {"class_name": "Zeros", "config": {}}, "gamma_initializer": {"class_name": "Ones", "config": {}}, "moving_mean_initializer": {"class_name": "Zeros", "config": {}}, "moving_variance_initializer": {"class_name": "Ones", "config": {}}, "beta_regularizer": null, "gamma_regularizer": null, "beta_constraint": null, "gamma_constraint": null}, "name": "block8_sepconv2_bn", "inbound_nodes": [[["block8_sepconv2", 0, 0, {}]]]}, {"class_name": "Activation", "config": {"name": "block8_sepconv3_act", "trainable": false, "dtype": "float32", "activation": "relu"}, "name": "block8_sepconv3_act", "inbound_nodes": [[["block8_sepconv2_bn", 0, 0, {}]]]}, {"class_name": "SeparableConv2D", "config": {"name": "block8_sepconv3", "trainable": false, "dtype": "float32", "filters": 728, "kernel_size": [3, 3], "strides": [1, 1], "padding": "same", "data_format": "channels_last", "dilation_rate": [1, 1], "groups": 1, "activation": "linear", "use_bias": false, "kernel_initializer": {"class_name": "GlorotUniform", "config": {"seed": null}}, "bias_initializer": {"class_name": "Zeros", "config": {}, "shared_object_id": 243}, "kernel_regularizer": null, "bias_regularizer": null, "activity_regularizer": null, "kernel_constraint": null, "bias_constraint": null, "depth_multiplier": 1, "depthwise_initializer": {"class_name": "GlorotUniform", "config": {"seed": null}}, "pointwise_initializer": {"class_name": "GlorotUniform", "config": {"seed": null}}, "depthwise_regularizer": null, "pointwise_regularizer": null, "depthwise_constraint": null, "pointwise_constraint": null}, "name": "block8_sepconv3", "inbound_nodes": [[["block8_sepconv3_act", 0, 0, {}]]]}, {"class_name": "BatchNormalization", "config": {"name": "block8_sepconv3_bn", "trainable": false, "dtype": "float32", "axis": [3], "momentum": 0.99, "epsilon": 0.001, "center": true, "scale": true, "beta_initializer": {"class_name": "Zeros", "config": {}}, "gamma_initializer": {"class_name": "Ones", "config": {}}, "moving_mean_initializer": {"class_name": "Zeros", "config": {}}, "moving_variance_initializer": {"class_name": "Ones", "config": {}}, "beta_regularizer": null, "gamma_regularizer": null, "beta_constraint": null, "gamma_constraint": null}, "name": "block8_sepconv3_bn", "inbound_nodes": [[["block8_sepconv3", 0, 0, {}]]]}, {"class_name": "Add", "config": {"name": "add_42", "trainable": false, "dtype": "float32"}, "name": "add_42", "inbound_nodes": [[["block8_sepconv3_bn", 0, 0, {}], ["add_41", 0, 0, {}]]]}, {"class_name": "Activation", "config": {"name": "block9_sepconv1_act", "trainable": false, "dtype": "float32", "activation": "relu"}, "name": "block9_sepconv1_act", "inbound_nodes": [[["add_42", 0, 0, {}]]]}, {"class_name": "SeparableConv2D", "config": {"name": "block9_sepconv1", "trainable": false, "dtype": "float32", "filters": 728, "kernel_size": [3, 3], "strides": [1, 1], "padding": "same", "data_format": "channels_last", "dilation_rate": [1, 1], "groups": 1, "activation": "linear", "use_bias": false, "kernel_initializer": {"class_name": "GlorotUniform", "config": {"seed": null}}, "bias_initializer": {"class_name": "Zeros", "config": {}, "shared_object_id": 255}, "kernel_regularizer": null, "bias_regularizer": null, "activity_regularizer": null, "kernel_constraint": null, "bias_constraint": null, "depth_multiplier": 1, "depthwise_initializer": {"class_name": "GlorotUniform", "config": {"seed": null}}, "pointwise_initializer": {"class_name": "GlorotUniform", "config": {"seed": null}}, "depthwise_regularizer": null, "pointwise_regularizer": null, "depthwise_constraint": null, "pointwise_constraint": null}, "name": "block9_sepconv1", "inbound_nodes": [[["block9_sepconv1_act", 0, 0, {}]]]}, {"class_name": "BatchNormalization", "config": {"name": "block9_sepconv1_bn", "trainable": false, "dtype": "float32", "axis": [3], "momentum": 0.99, "epsilon": 0.001, "center": true, "scale": true, "beta_initializer": {"class_name": "Zeros", "config": {}}, "gamma_initializer": {"class_name": "Ones", "config": {}}, "moving_mean_initializer": {"class_name": "Zeros", "config": {}}, "moving_variance_initializer": {"class_name": "Ones", "config": {}}, "beta_regularizer": null, "gamma_regularizer": null, "beta_constraint": null, "gamma_constraint": null}, "name": "block9_sepconv1_bn", "inbound_nodes": [[["block9_sepconv1", 0, 0, {}]]]}, {"class_name": "Activation", "config": {"name": "block9_sepconv2_act", "trainable": false, "dtype": "float32", "activation": "relu"}, "name": "block9_sepconv2_act", "inbound_nodes": [[["block9_sepconv1_bn", 0, 0, {}]]]}, {"class_name": "SeparableConv2D", "config": {"name": "block9_sepconv2", "trainable": false, "dtype": "float32", "filters": 728, "kernel_size": [3, 3], "strides": [1, 1], "padding": "same", "data_format": "channels_last", "dilation_rate": [1, 1], "groups": 1, "activation": "linear", "use_bias": false, "kernel_initializer": {"class_name": "GlorotUniform", "config": {"seed": null}}, "bias_initializer": {"class_name": "Zeros", "config": {}, "shared_object_id": 266}, "kernel_regularizer": null, "bias_regularizer": null, "activity_regularizer": null, "kernel_constraint": null, "bias_constraint": null, "depth_multiplier": 1, "depthwise_initializer": {"class_name": "GlorotUniform", "config": {"seed": null}}, "pointwise_initializer": {"class_name": "GlorotUniform", "config": {"seed": null}}, "depthwise_regularizer": null, "pointwise_regularizer": null, "depthwise_constraint": null, "pointwise_constraint": null}, "name": "block9_sepconv2", "inbound_nodes": [[["block9_sepconv2_act", 0, 0, {}]]]}, {"class_name": "BatchNormalization", "config": {"name": "block9_sepconv2_bn", "trainable": false, "dtype": "float32", "axis": [3], "momentum": 0.99, "epsilon": 0.001, "center": true, "scale": true, "beta_initializer": {"class_name": "Zeros", "config": {}}, "gamma_initializer": {"class_name": "Ones", "config": {}}, "moving_mean_initializer": {"class_name": "Zeros", "config": {}}, "moving_variance_initializer": {"class_name": "Ones", "config": {}}, "beta_regularizer": null, "gamma_regularizer": null, "beta_constraint": null, "gamma_constraint": null}, "name": "block9_sepconv2_bn", "inbound_nodes": [[["block9_sepconv2", 0, 0, {}]]]}, {"class_name": "Activation", "config": {"name": "block9_sepconv3_act", "trainable": false, "dtype": "float32", "activation": "relu"}, "name": "block9_sepconv3_act", "inbound_nodes": [[["block9_sepconv2_bn", 0, 0, {}]]]}, {"class_name": "SeparableConv2D", "config": {"name": "block9_sepconv3", "trainable": false, "dtype": "float32", "filters": 728, "kernel_size": [3, 3], "strides": [1, 1], "padding": "same", "data_format": "channels_last", "dilation_rate": [1, 1], "groups": 1, "activation": "linear", "use_bias": false, "kernel_initializer": {"class_name": "GlorotUniform", "config": {"seed": null}}, "bias_initializer": {"class_name": "Zeros", "config": {}, "shared_object_id": 277}, "kernel_regularizer": null, "bias_regularizer": null, "activity_regularizer": null, "kernel_constraint": null, "bias_constraint": null, "depth_multiplier": 1, "depthwise_initializer": {"class_name": "GlorotUniform", "config": {"seed": null}}, "pointwise_initializer": {"class_name": "GlorotUniform", "config": {"seed": null}}, "depthwise_regularizer": null, "pointwise_regularizer": null, "depthwise_constraint": null, "pointwise_constraint": null}, "name": "block9_sepconv3", "inbound_nodes": [[["block9_sepconv3_act", 0, 0, {}]]]}, {"class_name": "BatchNormalization", "config": {"name": "block9_sepconv3_bn", "trainable": false, "dtype": "float32", "axis": [3], "momentum": 0.99, "epsilon": 0.001, "center": true, "scale": true, "beta_initializer": {"class_name": "Zeros", "config": {}}, "gamma_initializer": {"class_name": "Ones", "config": {}}, "moving_mean_initializer": {"class_name": "Zeros", "config": {}}, "moving_variance_initializer": {"class_name": "Ones", "config": {}}, "beta_regularizer": null, "gamma_regularizer": null, "beta_constraint": null, "gamma_constraint": null}, "name": "block9_sepconv3_bn", "inbound_nodes": [[["block9_sepconv3", 0, 0, {}]]]}, {"class_name": "Add", "config": {"name": "add_43", "trainable": false, "dtype": "float32"}, "name": "add_43", "inbound_nodes": [[["block9_sepconv3_bn", 0, 0, {}], ["add_42", 0, 0, {}]]]}, {"class_name": "Activation", "config": {"name": "block10_sepconv1_act", "trainable": false, "dtype": "float32", "activation": "relu"}, "name": "block10_sepconv1_act", "inbound_nodes": [[["add_43", 0, 0, {}]]]}, {"class_name": "SeparableConv2D", "config": {"name": "block10_sepconv1", "trainable": false, "dtype": "float32", "filters": 728, "kernel_size": [3, 3], "strides": [1, 1], "padding": "same", "data_format": "channels_last", "dilation_rate": [1, 1], "groups": 1, "activation": "linear", "use_bias": false, "kernel_initializer": {"class_name": "GlorotUniform", "config": {"seed": null}}, "bias_initializer": {"class_name": "Zeros", "config": {}, "shared_object_id": 289}, "kernel_regularizer": null, "bias_regularizer": null, "activity_regularizer": null, "kernel_constraint": null, "bias_constraint": null, "depth_multiplier": 1, "depthwise_initializer": {"class_name": "GlorotUniform", "config": {"seed": null}}, "pointwise_initializer": {"class_name": "GlorotUniform", "config": {"seed": null}}, "depthwise_regularizer": null, "pointwise_regularizer": null, "depthwise_constraint": null, "pointwise_constraint": null}, "name": "block10_sepconv1", "inbound_nodes": [[["block10_sepconv1_act", 0, 0, {}]]]}, {"class_name": "BatchNormalization", "config": {"name": "block10_sepconv1_bn", "trainable": false, "dtype": "float32", "axis": [3], "momentum": 0.99, "epsilon": 0.001, "center": true, "scale": true, "beta_initializer": {"class_name": "Zeros", "config": {}}, "gamma_initializer": {"class_name": "Ones", "config": {}}, "moving_mean_initializer": {"class_name": "Zeros", "config": {}}, "moving_variance_initializer": {"class_name": "Ones", "config": {}}, "beta_regularizer": null, "gamma_regularizer": null, "beta_constraint": null, "gamma_constraint": null}, "name": "block10_sepconv1_bn", "inbound_nodes": [[["block10_sepconv1", 0, 0, {}]]]}, {"class_name": "Activation", "config": {"name": "block10_sepconv2_act", "trainable": false, "dtype": "float32", "activation": "relu"}, "name": "block10_sepconv2_act", "inbound_nodes": [[["block10_sepconv1_bn", 0, 0, {}]]]}, {"class_name": "SeparableConv2D", "config": {"name": "block10_sepconv2", "trainable": false, "dtype": "float32", "filters": 728, "kernel_size": [3, 3], "strides": [1, 1], "padding": "same", "data_format": "channels_last", "dilation_rate": [1, 1], "groups": 1, "activation": "linear", "use_bias": false, "kernel_initializer": {"class_name": "GlorotUniform", "config": {"seed": null}}, "bias_initializer": {"class_name": "Zeros", "config": {}, "shared_object_id": 300}, "kernel_regularizer": null, "bias_regularizer": null, "activity_regularizer": null, "kernel_constraint": null, "bias_constraint": null, "depth_multiplier": 1, "depthwise_initializer": {"class_name": "GlorotUniform", "config": {"seed": null}}, "pointwise_initializer": {"class_name": "GlorotUniform", "config": {"seed": null}}, "depthwise_regularizer": null, "pointwise_regularizer": null, "depthwise_constraint": null, "pointwise_constraint": null}, "name": "block10_sepconv2", "inbound_nodes": [[["block10_sepconv2_act", 0, 0, {}]]]}, {"class_name": "BatchNormalization", "config": {"name": "block10_sepconv2_bn", "trainable": false, "dtype": "float32", "axis": [3], "momentum": 0.99, "epsilon": 0.001, "center": true, "scale": true, "beta_initializer": {"class_name": "Zeros", "config": {}}, "gamma_initializer": {"class_name": "Ones", "config": {}}, "moving_mean_initializer": {"class_name": "Zeros", "config": {}}, "moving_variance_initializer": {"class_name": "Ones", "config": {}}, "beta_regularizer": null, "gamma_regularizer": null, "beta_constraint": null, "gamma_constraint": null}, "name": "block10_sepconv2_bn", "inbound_nodes": [[["block10_sepconv2", 0, 0, {}]]]}, {"class_name": "Activation", "config": {"name": "block10_sepconv3_act", "trainable": false, "dtype": "float32", "activation": "relu"}, "name": "block10_sepconv3_act", "inbound_nodes": [[["block10_sepconv2_bn", 0, 0, {}]]]}, {"class_name": "SeparableConv2D", "config": {"name": "block10_sepconv3", "trainable": false, "dtype": "float32", "filters": 728, "kernel_size": [3, 3], "strides": [1, 1], "padding": "same", "data_format": "channels_last", "dilation_rate": [1, 1], "groups": 1, "activation": "linear", "use_bias": false, "kernel_initializer": {"class_name": "GlorotUniform", "config": {"seed": null}}, "bias_initializer": {"class_name": "Zeros", "config": {}, "shared_object_id": 311}, "kernel_regularizer": null, "bias_regularizer": null, "activity_regularizer": null, "kernel_constraint": null, "bias_constraint": null, "depth_multiplier": 1, "depthwise_initializer": {"class_name": "GlorotUniform", "config": {"seed": null}}, "pointwise_initializer": {"class_name": "GlorotUniform", "config": {"seed": null}}, "depthwise_regularizer": null, "pointwise_regularizer": null, "depthwise_constraint": null, "pointwise_constraint": null}, "name": "block10_sepconv3", "inbound_nodes": [[["block10_sepconv3_act", 0, 0, {}]]]}, {"class_name": "BatchNormalization", "config": {"name": "block10_sepconv3_bn", "trainable": false, "dtype": "float32", "axis": [3], "momentum": 0.99, "epsilon": 0.001, "center": true, "scale": true, "beta_initializer": {"class_name": "Zeros", "config": {}}, "gamma_initializer": {"class_name": "Ones", "config": {}}, "moving_mean_initializer": {"class_name": "Zeros", "config": {}}, "moving_variance_initializer": {"class_name": "Ones", "config": {}}, "beta_regularizer": null, "gamma_regularizer": null, "beta_constraint": null, "gamma_constraint": null}, "name": "block10_sepconv3_bn", "inbound_nodes": [[["block10_sepconv3", 0, 0, {}]]]}, {"class_name": "Add", "config": {"name": "add_44", "trainable": false, "dtype": "float32"}, "name": "add_44", "inbound_nodes": [[["block10_sepconv3_bn", 0, 0, {}], ["add_43", 0, 0, {}]]]}, {"class_name": "Activation", "config": {"name": "block11_sepconv1_act", "trainable": false, "dtype": "float32", "activation": "relu"}, "name": "block11_sepconv1_act", "inbound_nodes": [[["add_44", 0, 0, {}]]]}, {"class_name": "SeparableConv2D", "config": {"name": "block11_sepconv1", "trainable": false, "dtype": "float32", "filters": 728, "kernel_size": [3, 3], "strides": [1, 1], "padding": "same", "data_format": "channels_last", "dilation_rate": [1, 1], "groups": 1, "activation": "linear", "use_bias": false, "kernel_initializer": {"class_name": "GlorotUniform", "config": {"seed": null}}, "bias_initializer": {"class_name": "Zeros", "config": {}, "shared_object_id": 323}, "kernel_regularizer": null, "bias_regularizer": null, "activity_regularizer": null, "kernel_constraint": null, "bias_constraint": null, "depth_multiplier": 1, "depthwise_initializer": {"class_name": "GlorotUniform", "config": {"seed": null}}, "pointwise_initializer": {"class_name": "GlorotUniform", "config": {"seed": null}}, "depthwise_regularizer": null, "pointwise_regularizer": null, "depthwise_constraint": null, "pointwise_constraint": null}, "name": "block11_sepconv1", "inbound_nodes": [[["block11_sepconv1_act", 0, 0, {}]]]}, {"class_name": "BatchNormalization", "config": {"name": "block11_sepconv1_bn", "trainable": false, "dtype": "float32", "axis": [3], "momentum": 0.99, "epsilon": 0.001, "center": true, "scale": true, "beta_initializer": {"class_name": "Zeros", "config": {}}, "gamma_initializer": {"class_name": "Ones", "config": {}}, "moving_mean_initializer": {"class_name": "Zeros", "config": {}}, "moving_variance_initializer": {"class_name": "Ones", "config": {}}, "beta_regularizer": null, "gamma_regularizer": null, "beta_constraint": null, "gamma_constraint": null}, "name": "block11_sepconv1_bn", "inbound_nodes": [[["block11_sepconv1", 0, 0, {}]]]}, {"class_name": "Activation", "config": {"name": "block11_sepconv2_act", "trainable": false, "dtype": "float32", "activation": "relu"}, "name": "block11_sepconv2_act", "inbound_nodes": [[["block11_sepconv1_bn", 0, 0, {}]]]}, {"class_name": "SeparableConv2D", "config": {"name": "block11_sepconv2", "trainable": false, "dtype": "float32", "filters": 728, "kernel_size": [3, 3], "strides": [1, 1], "padding": "same", "data_format": "channels_last", "dilation_rate": [1, 1], "groups": 1, "activation": "linear", "use_bias": false, "kernel_initializer": {"class_name": "GlorotUniform", "config": {"seed": null}}, "bias_initializer": {"class_name": "Zeros", "config": {}, "shared_object_id": 334}, "kernel_regularizer": null, "bias_regularizer": null, "activity_regularizer": null, "kernel_constraint": null, "bias_constraint": null, "depth_multiplier": 1, "depthwise_initializer": {"class_name": "GlorotUniform", "config": {"seed": null}}, "pointwise_initializer": {"class_name": "GlorotUniform", "config": {"seed": null}}, "depthwise_regularizer": null, "pointwise_regularizer": null, "depthwise_constraint": null, "pointwise_constraint": null}, "name": "block11_sepconv2", "inbound_nodes": [[["block11_sepconv2_act", 0, 0, {}]]]}, {"class_name": "BatchNormalization", "config": {"name": "block11_sepconv2_bn", "trainable": false, "dtype": "float32", "axis": [3], "momentum": 0.99, "epsilon": 0.001, "center": true, "scale": true, "beta_initializer": {"class_name": "Zeros", "config": {}}, "gamma_initializer": {"class_name": "Ones", "config": {}}, "moving_mean_initializer": {"class_name": "Zeros", "config": {}}, "moving_variance_initializer": {"class_name": "Ones", "config": {}}, "beta_regularizer": null, "gamma_regularizer": null, "beta_constraint": null, "gamma_constraint": null}, "name": "block11_sepconv2_bn", "inbound_nodes": [[["block11_sepconv2", 0, 0, {}]]]}, {"class_name": "Activation", "config": {"name": "block11_sepconv3_act", "trainable": false, "dtype": "float32", "activation": "relu"}, "name": "block11_sepconv3_act", "inbound_nodes": [[["block11_sepconv2_bn", 0, 0, {}]]]}, {"class_name": "SeparableConv2D", "config": {"name": "block11_sepconv3", "trainable": false, "dtype": "float32", "filters": 728, "kernel_size": [3, 3], "strides": [1, 1], "padding": "same", "data_format": "channels_last", "dilation_rate": [1, 1], "groups": 1, "activation": "linear", "use_bias": false, "kernel_initializer": {"class_name": "GlorotUniform", "config": {"seed": null}}, "bias_initializer": {"class_name": "Zeros", "config": {}, "shared_object_id": 345}, "kernel_regularizer": null, "bias_regularizer": null, "activity_regularizer": null, "kernel_constraint": null, "bias_constraint": null, "depth_multiplier": 1, "depthwise_initializer": {"class_name": "GlorotUniform", "config": {"seed": null}}, "pointwise_initializer": {"class_name": "GlorotUniform", "config": {"seed": null}}, "depthwise_regularizer": null, "pointwise_regularizer": null, "depthwise_constraint": null, "pointwise_constraint": null}, "name": "block11_sepconv3", "inbound_nodes": [[["block11_sepconv3_act", 0, 0, {}]]]}, {"class_name": "BatchNormalization", "config": {"name": "block11_sepconv3_bn", "trainable": false, "dtype": "float32", "axis": [3], "momentum": 0.99, "epsilon": 0.001, "center": true, "scale": true, "beta_initializer": {"class_name": "Zeros", "config": {}}, "gamma_initializer": {"class_name": "Ones", "config": {}}, "moving_mean_initializer": {"class_name": "Zeros", "config": {}}, "moving_variance_initializer": {"class_name": "Ones", "config": {}}, "beta_regularizer": null, "gamma_regularizer": null, "beta_constraint": null, "gamma_constraint": null}, "name": "block11_sepconv3_bn", "inbound_nodes": [[["block11_sepconv3", 0, 0, {}]]]}, {"class_name": "Add", "config": {"name": "add_45", "trainable": false, "dtype": "float32"}, "name": "add_45", "inbound_nodes": [[["block11_sepconv3_bn", 0, 0, {}], ["add_44", 0, 0, {}]]]}, {"class_name": "Activation", "config": {"name": "block12_sepconv1_act", "trainable": false, "dtype": "float32", "activation": "relu"}, "name": "block12_sepconv1_act", "inbound_nodes": [[["add_45", 0, 0, {}]]]}, {"class_name": "SeparableConv2D", "config": {"name": "block12_sepconv1", "trainable": false, "dtype": "float32", "filters": 728, "kernel_size": [3, 3], "strides": [1, 1], "padding": "same", "data_format": "channels_last", "dilation_rate": [1, 1], "groups": 1, "activation": "linear", "use_bias": false, "kernel_initializer": {"class_name": "GlorotUniform", "config": {"seed": null}}, "bias_initializer": {"class_name": "Zeros", "config": {}, "shared_object_id": 357}, "kernel_regularizer": null, "bias_regularizer": null, "activity_regularizer": null, "kernel_constraint": null, "bias_constraint": null, "depth_multiplier": 1, "depthwise_initializer": {"class_name": "GlorotUniform", "config": {"seed": null}}, "pointwise_initializer": {"class_name": "GlorotUniform", "config": {"seed": null}}, "depthwise_regularizer": null, "pointwise_regularizer": null, "depthwise_constraint": null, "pointwise_constraint": null}, "name": "block12_sepconv1", "inbound_nodes": [[["block12_sepconv1_act", 0, 0, {}]]]}, {"class_name": "BatchNormalization", "config": {"name": "block12_sepconv1_bn", "trainable": false, "dtype": "float32", "axis": [3], "momentum": 0.99, "epsilon": 0.001, "center": true, "scale": true, "beta_initializer": {"class_name": "Zeros", "config": {}}, "gamma_initializer": {"class_name": "Ones", "config": {}}, "moving_mean_initializer": {"class_name": "Zeros", "config": {}}, "moving_variance_initializer": {"class_name": "Ones", "config": {}}, "beta_regularizer": null, "gamma_regularizer": null, "beta_constraint": null, "gamma_constraint": null}, "name": "block12_sepconv1_bn", "inbound_nodes": [[["block12_sepconv1", 0, 0, {}]]]}, {"class_name": "Activation", "config": {"name": "block12_sepconv2_act", "trainable": false, "dtype": "float32", "activation": "relu"}, "name": "block12_sepconv2_act", "inbound_nodes": [[["block12_sepconv1_bn", 0, 0, {}]]]}, {"class_name": "SeparableConv2D", "config": {"name": "block12_sepconv2", "trainable": false, "dtype": "float32", "filters": 728, "kernel_size": [3, 3], "strides": [1, 1], "padding": "same", "data_format": "channels_last", "dilation_rate": [1, 1], "groups": 1, "activation": "linear", "use_bias": false, "kernel_initializer": {"class_name": "GlorotUniform", "config": {"seed": null}}, "bias_initializer": {"class_name": "Zeros", "config": {}, "shared_object_id": 368}, "kernel_regularizer": null, "bias_regularizer": null, "activity_regularizer": null, "kernel_constraint": null, "bias_constraint": null, "depth_multiplier": 1, "depthwise_initializer": {"class_name": "GlorotUniform", "config": {"seed": null}}, "pointwise_initializer": {"class_name": "GlorotUniform", "config": {"seed": null}}, "depthwise_regularizer": null, "pointwise_regularizer": null, "depthwise_constraint": null, "pointwise_constraint": null}, "name": "block12_sepconv2", "inbound_nodes": [[["block12_sepconv2_act", 0, 0, {}]]]}, {"class_name": "BatchNormalization", "config": {"name": "block12_sepconv2_bn", "trainable": false, "dtype": "float32", "axis": [3], "momentum": 0.99, "epsilon": 0.001, "center": true, "scale": true, "beta_initializer": {"class_name": "Zeros", "config": {}}, "gamma_initializer": {"class_name": "Ones", "config": {}}, "moving_mean_initializer": {"class_name": "Zeros", "config": {}}, "moving_variance_initializer": {"class_name": "Ones", "config": {}}, "beta_regularizer": null, "gamma_regularizer": null, "beta_constraint": null, "gamma_constraint": null}, "name": "block12_sepconv2_bn", "inbound_nodes": [[["block12_sepconv2", 0, 0, {}]]]}, {"class_name": "Activation", "config": {"name": "block12_sepconv3_act", "trainable": false, "dtype": "float32", "activation": "relu"}, "name": "block12_sepconv3_act", "inbound_nodes": [[["block12_sepconv2_bn", 0, 0, {}]]]}, {"class_name": "SeparableConv2D", "config": {"name": "block12_sepconv3", "trainable": false, "dtype": "float32", "filters": 728, "kernel_size": [3, 3], "strides": [1, 1], "padding": "same", "data_format": "channels_last", "dilation_rate": [1, 1], "groups": 1, "activation": "linear", "use_bias": false, "kernel_initializer": {"class_name": "GlorotUniform", "config": {"seed": null}}, "bias_initializer": {"class_name": "Zeros", "config": {}, "shared_object_id": 379}, "kernel_regularizer": null, "bias_regularizer": null, "activity_regularizer": null, "kernel_constraint": null, "bias_constraint": null, "depth_multiplier": 1, "depthwise_initializer": {"class_name": "GlorotUniform", "config": {"seed": null}}, "pointwise_initializer": {"class_name": "GlorotUniform", "config": {"seed": null}}, "depthwise_regularizer": null, "pointwise_regularizer": null, "depthwise_constraint": null, "pointwise_constraint": null}, "name": "block12_sepconv3", "inbound_nodes": [[["block12_sepconv3_act", 0, 0, {}]]]}, {"class_name": "BatchNormalization", "config": {"name": "block12_sepconv3_bn", "trainable": false, "dtype": "float32", "axis": [3], "momentum": 0.99, "epsilon": 0.001, "center": true, "scale": true, "beta_initializer": {"class_name": "Zeros", "config": {}}, "gamma_initializer": {"class_name": "Ones", "config": {}}, "moving_mean_initializer": {"class_name": "Zeros", "config": {}}, "moving_variance_initializer": {"class_name": "Ones", "config": {}}, "beta_regularizer": null, "gamma_regularizer": null, "beta_constraint": null, "gamma_constraint": null}, "name": "block12_sepconv3_bn", "inbound_nodes": [[["block12_sepconv3", 0, 0, {}]]]}, {"class_name": "Add", "config": {"name": "add_46", "trainable": false, "dtype": "float32"}, "name": "add_46", "inbound_nodes": [[["block12_sepconv3_bn", 0, 0, {}], ["add_45", 0, 0, {}]]]}, {"class_name": "Activation", "config": {"name": "block13_sepconv1_act", "trainable": false, "dtype": "float32", "activation": "relu"}, "name": "block13_sepconv1_act", "inbound_nodes": [[["add_46", 0, 0, {}]]]}, {"class_name": "SeparableConv2D", "config": {"name": "block13_sepconv1", "trainable": false, "dtype": "float32", "filters": 728, "kernel_size": [3, 3], "strides": [1, 1], "padding": "same", "data_format": "channels_last", "dilation_rate": [1, 1], "groups": 1, "activation": "linear", "use_bias": false, "kernel_initializer": {"class_name": "GlorotUniform", "config": {"seed": null}}, "bias_initializer": {"class_name": "Zeros", "config": {}, "shared_object_id": 391}, "kernel_regularizer": null, "bias_regularizer": null, "activity_regularizer": null, "kernel_constraint": null, "bias_constraint": null, "depth_multiplier": 1, "depthwise_initializer": {"class_name": "GlorotUniform", "config": {"seed": null}}, "pointwise_initializer": {"class_name": "GlorotUniform", "config": {"seed": null}}, "depthwise_regularizer": null, "pointwise_regularizer": null, "depthwise_constraint": null, "pointwise_constraint": null}, "name": "block13_sepconv1", "inbound_nodes": [[["block13_sepconv1_act", 0, 0, {}]]]}, {"class_name": "BatchNormalization", "config": {"name": "block13_sepconv1_bn", "trainable": false, "dtype": "float32", "axis": [3], "momentum": 0.99, "epsilon": 0.001, "center": true, "scale": true, "beta_initializer": {"class_name": "Zeros", "config": {}}, "gamma_initializer": {"class_name": "Ones", "config": {}}, "moving_mean_initializer": {"class_name": "Zeros", "config": {}}, "moving_variance_initializer": {"class_name": "Ones", "config": {}}, "beta_regularizer": null, "gamma_regularizer": null, "beta_constraint": null, "gamma_constraint": null}, "name": "block13_sepconv1_bn", "inbound_nodes": [[["block13_sepconv1", 0, 0, {}]]]}, {"class_name": "Activation", "config": {"name": "block13_sepconv2_act", "trainable": false, "dtype": "float32", "activation": "relu"}, "name": "block13_sepconv2_act", "inbound_nodes": [[["block13_sepconv1_bn", 0, 0, {}]]]}, {"class_name": "SeparableConv2D", "config": {"name": "block13_sepconv2", "trainable": false, "dtype": "float32", "filters": 1024, "kernel_size": [3, 3], "strides": [1, 1], "padding": "same", "data_format": "channels_last", "dilation_rate": [1, 1], "groups": 1, "activation": "linear", "use_bias": false, "kernel_initializer": {"class_name": "GlorotUniform", "config": {"seed": null}}, "bias_initializer": {"class_name": "Zeros", "config": {}, "shared_object_id": 402}, "kernel_regularizer": null, "bias_regularizer": null, "activity_regularizer": null, "kernel_constraint": null, "bias_constraint": null, "depth_multiplier": 1, "depthwise_initializer": {"class_name": "GlorotUniform", "config": {"seed": null}}, "pointwise_initializer": {"class_name": "GlorotUniform", "config": {"seed": null}}, "depthwise_regularizer": null, "pointwise_regularizer": null, "depthwise_constraint": null, "pointwise_constraint": null}, "name": "block13_sepconv2", "inbound_nodes": [[["block13_sepconv2_act", 0, 0, {}]]]}, {"class_name": "BatchNormalization", "config": {"name": "block13_sepconv2_bn", "trainable": false, "dtype": "float32", "axis": [3], "momentum": 0.99, "epsilon": 0.001, "center": true, "scale": true, "beta_initializer": {"class_name": "Zeros", "config": {}}, "gamma_initializer": {"class_name": "Ones", "config": {}}, "moving_mean_initializer": {"class_name": "Zeros", "config": {}}, "moving_variance_initializer": {"class_name": "Ones", "config": {}}, "beta_regularizer": null, "gamma_regularizer": null, "beta_constraint": null, "gamma_constraint": null}, "name": "block13_sepconv2_bn", "inbound_nodes": [[["block13_sepconv2", 0, 0, {}]]]}, {"class_name": "Conv2D", "config": {"name": "conv2d_15", "trainable": false, "dtype": "float32", "filters": 1024, "kernel_size": [1, 1], "strides": [2, 2], "padding": "same", "data_format": "channels_last", "dilation_rate": [1, 1], "groups": 1, "activation": "linear", "use_bias": false, "kernel_initializer": {"class_name": "GlorotUniform", "config": {"seed": null}}, "bias_initializer": {"class_name": "Zeros", "config": {}}, "kernel_regularizer": null, "bias_regularizer": null, "activity_regularizer": null, "kernel_constraint": null, "bias_constraint": null}, "name": "conv2d_15", "inbound_nodes": [[["add_46", 0, 0, {}]]]}, {"class_name": "MaxPooling2D", "config": {"name": "block13_pool", "trainable": false, "dtype": "float32", "pool_size": [3, 3], "padding": "same", "strides": [2, 2], "data_format": "channels_last"}, "name": "block13_pool", "inbound_nodes": [[["block13_sepconv2_bn", 0, 0, {}]]]}, {"class_name": "BatchNormalization", "config": {"name": "batch_normalization_15", "trainable": false, "dtype": "float32", "axis": [3], "momentum": 0.99, "epsilon": 0.001, "center": true, "scale": true, "beta_initializer": {"class_name": "Zeros", "config": {}}, "gamma_initializer": {"class_name": "Ones", "config": {}}, "moving_mean_initializer": {"class_name": "Zeros", "config": {}}, "moving_variance_initializer": {"class_name": "Ones", "config": {}}, "beta_regularizer": null, "gamma_regularizer": null, "beta_constraint": null, "gamma_constraint": null}, "name": "batch_normalization_15", "inbound_nodes": [[["conv2d_15", 0, 0, {}]]]}, {"class_name": "Add", "config": {"name": "add_47", "trainable": false, "dtype": "float32"}, "name": "add_47", "inbound_nodes": [[["block13_pool", 0, 0, {}], ["batch_normalization_15", 0, 0, {}]]]}, {"class_name": "SeparableConv2D", "config": {"name": "block14_sepconv1", "trainable": false, "dtype": "float32", "filters": 1536, "kernel_size": [3, 3], "strides": [1, 1], "padding": "same", "data_format": "channels_last", "dilation_rate": [1, 1], "groups": 1, "activation": "linear", "use_bias": false, "kernel_initializer": {"class_name": "GlorotUniform", "config": {"seed": null}}, "bias_initializer": {"class_name": "Zeros", "config": {}, "shared_object_id": 422}, "kernel_regularizer": null, "bias_regularizer": null, "activity_regularizer": null, "kernel_constraint": null, "bias_constraint": null, "depth_multiplier": 1, "depthwise_initializer": {"class_name": "GlorotUniform", "config": {"seed": null}}, "pointwise_initializer": {"class_name": "GlorotUniform", "config": {"seed": null}}, "depthwise_regularizer": null, "pointwise_regularizer": null, "depthwise_constraint": null, "pointwise_constraint": null}, "name": "block14_sepconv1", "inbound_nodes": [[["add_47", 0, 0, {}]]]}, {"class_name": "BatchNormalization", "config": {"name": "block14_sepconv1_bn", "trainable": false, "dtype": "float32", "axis": [3], "momentum": 0.99, "epsilon": 0.001, "center": true, "scale": true, "beta_initializer": {"class_name": "Zeros", "config": {}}, "gamma_initializer": {"class_name": "Ones", "config": {}}, "moving_mean_initializer": {"class_name": "Zeros", "config": {}}, "moving_variance_initializer": {"class_name": "Ones", "config": {}}, "beta_regularizer": null, "gamma_regularizer": null, "beta_constraint": null, "gamma_constraint": null}, "name": "block14_sepconv1_bn", "inbound_nodes": [[["block14_sepconv1", 0, 0, {}]]]}, {"class_name": "Activation", "config": {"name": "block14_sepconv1_act", "trainable": false, "dtype": "float32", "activation": "relu"}, "name": "block14_sepconv1_act", "inbound_nodes": [[["block14_sepconv1_bn", 0, 0, {}]]]}, {"class_name": "SeparableConv2D", "config": {"name": "block14_sepconv2", "trainable": false, "dtype": "float32", "filters": 2048, "kernel_size": [3, 3], "strides": [1, 1], "padding": "same", "data_format": "channels_last", "dilation_rate": [1, 1], "groups": 1, "activation": "linear", "use_bias": false, "kernel_initializer": {"class_name": "GlorotUniform", "config": {"seed": null}}, "bias_initializer": {"class_name": "Zeros", "config": {}, "shared_object_id": 433}, "kernel_regularizer": null, "bias_regularizer": null, "activity_regularizer": null, "kernel_constraint": null, "bias_constraint": null, "depth_multiplier": 1, "depthwise_initializer": {"class_name": "GlorotUniform", "config": {"seed": null}}, "pointwise_initializer": {"class_name": "GlorotUniform", "config": {"seed": null}}, "depthwise_regularizer": null, "pointwise_regularizer": null, "depthwise_constraint": null, "pointwise_constraint": null}, "name": "block14_sepconv2", "inbound_nodes": [[["block14_sepconv1_act", 0, 0, {}]]]}, {"class_name": "BatchNormalization", "config": {"name": "block14_sepconv2_bn", "trainable": false, "dtype": "float32", "axis": [3], "momentum": 0.99, "epsilon": 0.001, "center": true, "scale": true, "beta_initializer": {"class_name": "Zeros", "config": {}}, "gamma_initializer": {"class_name": "Ones", "config": {}}, "moving_mean_initializer": {"class_name": "Zeros", "config": {}}, "moving_variance_initializer": {"class_name": "Ones", "config": {}}, "beta_regularizer": null, "gamma_regularizer": null, "beta_constraint": null, "gamma_constraint": null}, "name": "block14_sepconv2_bn", "inbound_nodes": [[["block14_sepconv2", 0, 0, {}]]]}, {"class_name": "Activation", "config": {"name": "block14_sepconv2_act", "trainable": false, "dtype": "float32", "activation": "relu"}, "name": "block14_sepconv2_act", "inbound_nodes": [[["block14_sepconv2_bn", 0, 0, {}]]]}], "input_layers": [["input_8", 0, 0]], "output_layers": [["block14_sepconv2_act", 0, 0]]}, "name": "xception", "inbound_nodes": [[["rescaling_3", 0, 0, {"training": false}]]]}, {"class_name": "GlobalAveragePooling2D", "config": {"name": "global_average_pooling2d_3", "trainable": true, "dtype": "float32", "data_format": "channels_last", "keepdims": false}, "name": "global_average_pooling2d_3", "inbound_nodes": [[["xception", 1, 0, {}]]]}, {"class_name": "Dropout", "config": {"name": "dropout_3", "trainable": true, "dtype": "float32", "rate": 0.2, "noise_shape": null, "seed": null}, "name": "dropout_3", "inbound_nodes": [[["global_average_pooling2d_3", 0, 0, {}]]]}, {"class_name": "Dense", "config": {"name": "dense_3", "trainable": true, "dtype": "float32", "units": 1, "activation": "sigmoid", "use_bias": true, "kernel_initializer": {"class_name": "GlorotUniform", "config": {"seed": null}}, "bias_initializer": {"class_name": "Zeros", "config": {}}, "kernel_regularizer": null, "bias_regularizer": null, "activity_regularizer": null, "kernel_constraint": null, "bias_constraint": null}, "name": "dense_3", "inbound_nodes": [[["dropout_3", 0, 0, {}]]]}], "input_layers": [["input_7", 0, 0]], "output_layers": [["dense_3", 0, 0]]}, "keras_version": "2.10.0", "backend": "tensorflow"}